model_weights.pth (torch, 89554 bytes, 11 tensors)

image_encoder.layers.0.weight f4 [2, 4096]
-0.0038412896 0.0041069956 -0.027386699 -0.08038351 -0.11694961 -0.13454843 -0.117658734 -0.09819745
-0.09161657 -0.08603383 -0.08867902 -0.07920512 -0.072981365 -0.08944114 -0.077202454 -0.06944345
-0.05992369 -0.070912145 -0.05292672 -0.0670619 -0.03929994 -0.029252987 -0.017265592 -0.026645252
-0.03184831 -0.021395812 -0.03456334 -0.009192243 6.901993e-05 -0.0041324273 0.020612238 0.023102777
0.016524252 0.018899648 0.0010242624 0.0037217764 0.008107599 0.03302499 0.01838536 0.027291784
0.05343959 0.043222796 0.06302924 0.07416899 0.07241222 0.060886495 0.0768689 0.07342996
0.08523187 0.083205655 0.06714829 0.0758343 0.093405336 0.104546 0.103070825 0.080727726
0.09581305 0.09418358 0.11257149 0.113159426 0.090417854 0.07301864 0.032850064 0.009521891
-0.01814457 -0.043490548 -0.22152653 -0.5589535 -0.8405405 -0.8190822 -0.7235085 -0.63877857
-0.58485156 -0.5760788 -0.5487148 -0.5185665 -0.49770716 -0.47111243 -0.45670518 -0.41146174
-0.38846907 -0.36986846 -0.36098474 -0.33364752 -0.28469706 -0.24499545 -0.18910569 -0.1692764
-0.17765863 -0.15162 -0.10884168 -0.11595621 -0.08028285 -0.014240294 0.029882574 0.032413594
0.02589659 0.032520343 0.08988873 0.113257274 0.1354285 0.17979708 0.18923898 0.2087921
0.26842475 0.29376972 0.29898533 0.35542145 0.3900038 0.394987 0.40599713 0.42983446
0.46129575 0.49215776 0.5174372 0.5373863 0.545272 0.5666985 0.6135048 0.60891443
0.581381 0.6208014 0.68801 0.7589083 0.7429823 0.48473996 0.19518694 0.042361155
-0.026003286 -0.21906598 -0.95526576 -1.9046909 -2.3745594 -2.26493 -1.9901633 -1.855422
-1.716967 -1.629513 -1.5379142 -1.4370415 -1.346899 -1.2542757 -1.1502525 -1.0832965
-0.9961506 -0.970359 -0.91821086 -0.8118281 -0.7111035 -0.6183328 -0.51042825 -0.4368766
-0.39781705 -0.35734424 -0.29420134 -0.22542784 -0.16567028 -0.032226585 0.027811138 0.04725283
0.08649198 0.10553038 0.19591759 0.2724085 0.3503745 0.44171116 0.44968542 0.50464654
0.6382545 0.7212593 0.72572845 0.80692816 0.9118921 0.95714676 1.0269372 1.0930425
1.179599 1.2635463 1.3235419 1.3930739 1.4643397 1.5371695 1.632347 1.6940266
1.6791213 1.75606 1.9609731 2.1355789 2.190651 1.7338395 0.8338453 0.20609437
-0.09289988 -0.60874754 -2.007968 -3.1889122 -3.3918197 -2.9427924 -2.529733 -2.4484847
-2.2430508 -2.0797403 -1.9457107 -1.757889 -1.6422037 -1.4804575 -1.3686578 -1.2918195
-1.1723135 -1.0625434 -0.97470814 -0.85972196 -0.80805486 -0.69404376 -0.60168576 -0.51591134
-0.45313063 -0.40924695 -0.30580598 -0.24430443 -0.15583809 -0.027780084 0.010850065 0.026641076
0.07393033 0.12513277 0.22435488 0.31693992 0.39590913 0.4855844 0.5480416 0.5763355
0.6856093 0.8120163 0.8192676 0.9075919 0.9814411 1.0525197 1.1582255 1.2201632
1.3474519 1.470751 1.5025591 1.6386483 1.7535499 1.8554093 2.0235388 2.1572416
2.198687 2.390038 2.5856857 2.7474577 3.0923474 2.9487817 1.7893693 0.5218917
00000000: 25be 7bbb fa93 863b 125a e0bc 1ca0 a4bd
00000010: 4783 efbd 10c7 09be 10f7 f0bd bf1b c9bd
00000020: 78a1 bbbd 8132 b0bd 599d b5bd 4b36 a2bd
00000030: 4177 95bd eb2c b7bd 521c 9ebd 5e38 8ebd
00000040: 8b72 75bd 633a 91bd b0c9 58bd c057 89bd
00000050: f9f8 20bd f6a3 efbc 9270 8dbc 2547 dabc
00000060: 6073 02bd 4546 afbc 4a92 0dbd 109b 16bc
00000070: cbbe 9038 5069 87bb ffda a83c 0942 bd3c
00000080: de5d 873c 6fd3 9a3c 8b40 863a 0ce9 733b
00000090: bcd5 043c 3645 073d e59c 963c 0593 df3c
000000a0: 79e3 5a3d 630a 313d 7915 813d e9e5 973d
000000b0: dc4c 943d 1e64 793d 716d 9d3d 7262 963d
000000c0: 0c8e ae3d ba67 aa3d 0b85 893d 034f 9b3d
000000d0: 4c4b bf3d 371c d63d cc16 d33d 9454 a53d
000000e0: a239 c43d 52e3 c03d e28b e63d 21c0 e73d
000000f0: ff2c b93d cc8a 953d ca8d 063d b501 1c3c
00000100: eca3 94bc 2523 32bd dad7 62be 9417 0fbf
00000110: aa2d 57bf 5faf 51bf da37 39bf fe86 23bf
00000120: d5b8 15bf e679 13bf 9378 0cbf c6c0 04bf
00000130: 79d3 febe a635 f1be 43d5 e9be 1dab d2be
00000140: 6be5 c6be 665f bdbe fed2 b8be d9d3 aabe
00000150: d0c3 91be 16e0 7abe eca4 41be cb56 2dbe
00000160: 25ec 35be 4642 1bbe 63e8 debd 737a edbd
00000170: 566b a4bd 1f50 69bc 4dcc f43c 1ec4 043d
00000180: 1625 d43c 0d34 053d 9517 b83d 6ef3 e73d
00000190: c5ad 0a3e ba1c 383e ddc7 413e 99cd 553e
000001a0: f86e 893e fc68 963e 9b14 993e cdf9 b53e
000001b0: 94ae c73e bc3b ca3e dbde cf3e 4313 dc3e
000001c0: f52e ec3e 1afc fb3e c476 043f 2692 093f
000001d0: f296 0b3f 2713 113f a70e 1d3f d1e1 1b3f
000001e0: 63d5 143f d7ec 1e3f 6c21 303f d047 423f
000001f0: 1734 3e3f d62f f83e 16df 473e e482 2d3d
00000200: d804 d5bc d552 60be 4c8c 74bf e9cc f3bf
00000210: c8f8 17c0 9df4 10c0 acbd febf 787e edbf
00000220: 93c5 dbbf e293 d0bf 5fda c4bf faf0 b7bf
00000230: 3067 acbf 1b8c a0bf 793b 93bf 76a9 8abf
00000240: ba03 7fbf 7369 78bf de0f 6bbf f7d3 4fbf
00000250: e10a 36bf 0f4b 1ebf 6dab 02bf 4aae dfbe
00000260: adae cbbe d3f5 b6be 8fa1 96be 8ed6 66be
00000270: 78a5 29be 0600 04bd 2fd4 e33c 2f8c 413d
00000280: b522 b13d 5020 d83d 9f9e 483e 2079 8b3e
00000290: 4964 b33e f727 e23e 2b3d e63e 8430 013f
000002a0: a664 233f 73a4 383f 57c9 393f d892 4e3f
000002b0: c371 693f 9207 753f ae72 833f d1e8 8b3f
000002c0: 1afd 963f e3bb a13f d269 a93f 3f50 b23f
000002d0: 7c6f bb3f f8c1 c43f bff0 d03f ddd5 d83f
000002e0: 72ed d63f 93c6 e03f 2b01 fb3f 53ad 0840
000002f0: a033 0c40 74ee dd3f e376 553f 670a 533e
00000300: 4b42 bebd e1d6 1bbf 8c82 00c0 2317 4cc0
00000310: 9313 59c0 b656 3cc0 25e7 21c0 f9b3 1cc0
00000320: 258e 0fc0 771a 05c0 0c0d f9bf 8202 e1bf
00000330: bb33 d2bf a27f bdbf 2e30 afbf 575a a5bf
00000340: 5e0e 96bf 6c01 88bf 7986 79bf bd16 5cbf
00000350: afdc 4ebf daac 31bf 1408 1abf c412 04bf
00000360: bd00 e8be d188 d1be 9a92 9cbe f12a 7abe
00000370: 0594 1fbe 0f93 e3bc 79c4 313c 633e da3c
00000380: c968 973d ce22 003e 49bd 653e f345 a23e
00000390: 9ab4 ca3e 859e f83e 744c 0c3f b98a 133f
000003a0: 1784 2f3f 4de0 4f3f 85bb 513f f157 683f
000003b0: b93f 7b3f f7b8 863f bc40 943f 4f2e 9c3f
000003c0: 4e79 ac3f 9241 bc3f db53 c03f 3abf d13f
000003d0: 5374 e03f 0d7e ed3f a981 0140 3f10 0a40
000003e0: 4ab7 0c40 62f6 1840 e07b 2540 59d6 2f40
000003f0: 05e9 4540 d7b8 3c40 0e0a e53f b29a 053f

image_encoder.layers.0.bias f4 [2]
-0.16189666 -0.17631349
00000000: 3dc8 25be 868b 34be

predictor.layers.0.weight f4 [64, 6]
-0.06957696 -0.004610085 0.0861247 -0.22681881 0.1940957 -0.13621247 0.33494297 -0.31412166
0.065712094 0.04967596 0.25292632 -0.2714464 -0.22545646 -0.0022174895 -0.07388573 -0.02644116
-0.062222797 -0.012736803 0.0026690252 -1.4866027 -0.004916763 -0.040590104 0.05474559 -1.4335575
0.3834855 0.055145178 0.52121717 -0.06611542 0.46758896 -0.03661095 0.0071626296 0.46282825
-0.21894526 -0.1932483 -0.119296916 0.20761278 0.14810884 0.13103622 -0.05835542 -0.16336808
0.14478327 0.21034823 -0.29355544 0.16555983 0.24139611 0.29052442 -0.29713318 0.2478961
0.06290768 -0.22217223 -0.18696085 0.328407 0.2616791 -0.502247 0.095394485 -0.68946797
-0.011015147 -0.23074247 0.21491635 -0.6150027 -0.22742215 -0.15614468 0.23590595 -0.12719058
-0.05590558 -0.4442369 -0.3276832 -0.013842924 0.34829363 -0.12549128 -0.32492968 0.1537372
0.28748643 0.16861114 -0.21061715 0.23760422 0.64135236 0.31771165 -0.17452294 -0.026645606
0.08568387 0.25446934 0.22556251 -0.08504421 0.18644045 -0.28393987 0.006816314 0.053586595
0.41844487 -0.14820811 0.051682364 -0.13298461 0.054231662 -0.2822213 0.24727756 0.0017601775
0.055574402 0.22280414 0.43179393 -0.18996896 0.17158896 0.4258826 0.40239152 -0.18373854
-0.07757581 0.034941066 0.28765455 -0.29350182 -0.085155174 0.21714796 -0.047432475 -0.15807307
0.15720795 -0.2216183 -0.19663839 -0.7687093 0.033993285 0.23268203 -0.57872117 -0.49320838
-0.41281918 0.15083382 0.11295359 0.38489345 -0.52172196 0.1610431 -0.18066578 -0.020755095
-0.14546964 -0.29054204 -0.034938484 0.17962101 -0.4129696 0.26610008 0.39104113 -0.22057226
-0.49917004 0.22787994 -0.12995373 -0.10037473 -0.22183636 0.13025633 -0.22927742 -0.008946616
0.28094357 -0.00025589074 0.0014747452 -0.03471993 0.37960663 -0.021701388 -0.15566704 0.09486781
-0.112942435 0.050273206 0.006817512 0.23464301 -0.054505967 -0.2505999 0.27253187 0.2067176
-0.11418556 -0.24955967 -0.40997633 0.070347026 0.27754658 -0.076490395 -0.056043416 0.037507456
-0.16694105 -0.016910797 -0.1050872 0.18138409 0.08510772 -0.1920781 0.20904927 0.10678057
-0.3494843 -0.043037277 0.20960319 0.31440717 0.34304842 -0.1678509 -0.101205096 -0.28185093
0.37167284 -0.028224038 0.36812094 0.3699229 -0.025960257 -0.25456047 0.4631374 0.60639536
-0.016231708 -1.4197888 0.023436911 0.10319599 -0.004252113 -1.3165197 -0.06014196 0.27513325
0.19784138 0.042617407 -0.017980987 0.09747368 0.31567484 -0.11635845 0.24912822 0.01291182
0.5930224 -0.3039279 0.8294314 0.021706678 -0.05579948 -0.17834908 0.76028216 0.068556495
-0.053730093 0.026683612 -0.31290835 0.0704632 -0.32934394 0.117705025 0.43745443 -0.0014037238
-0.24476857 0.038685 0.3347357 0.12995383 -0.015312127 -0.2337788 0.04432051 -0.25152022
-0.054539487 -0.011529485 0.14337364 0.23772988 -0.24310248 0.5027378 0.078754924 0.39358115
0.032679915 0.24297674 -0.1003663 0.21305759 0.37713397 0.3549131 0.15915285 -0.55985487
-0.29260123 0.30691367 -0.2175469 0.044935405 0.43387747 -0.11119966 -0.09507643 0.2679921
00000000: 5d7e 8ebd 3210 97bb 2662 b03d 3143 68be
00000010: 06c1 463e 487b 0bbe a57d ab3e 8ed4 a0be
00000020: 1094 863d 0579 4b3d 8f7f 813e 06fb 8abe
00000030: 0fde 66be 4d53 11bb 6751 97bd 229b d8bc
00000040: 55dd 7ebd 06ae 50bc d0ea 2e3b ff48 bebf
00000050: cc1c a1bb cf41 26bd e93c 603d d07e b7bf
00000060: 3658 c43e e9df 613d 7d6e 053f 8567 87bd
00000070: d267 ef3e 5df5 15bd 7eb4 ea3b d3f7 ec3e
00000080: 3033 60be e2e2 45be f151 f4bd 7298 543e
00000090: d8a9 173e 5c2e 063e 1806 6fbd f649 27be
000000a0: 1142 143e 8765 573e e64c 96be 8488 293e
000000b0: 8b30 773e 9ebf 943e d721 98be 7ad8 7d3e
000000c0: bed5 803d 1e81 63be aa72 3fbe f624 a83e
000000d0: cefa 853e 4293 00bf 2f5e c33d f980 30bf
000000e0: e078 34bc c147 6cbe 0813 5c3e d170 1dbf
000000f0: 5ae1 68be 64e4 1fbe 5491 713e 3f3e 02be
00000100: 40fd 64bd 0573 e3be 18c6 a7be 6ecd 62bc
00000110: 8b53 b23e c980 00be 2f5d a6be 496d 1d3e
00000120: 6c31 933e 66a8 2c3e 06ac 57be 854e 733e
00000130: ab2f 243f 1aab a23e 24b6 32be e347 dabc
00000140: 067b af3d ce49 823e dcf9 663e a92b aebd
00000150: 3fea 3e3e 9160 91be 635b df3b 9e7d 5b3d
00000160: 683e d63e dec3 17be e3b0 533d 1e2d 08be
00000170: 0522 5e3d 4f7f 90be 5436 7d3e c2b5 e63a
00000180: fca1 633d c526 643e 1814 dd3e 3987 42be
00000190: 04b5 2f3e 490d da3e 4306 ce3e f525 3cbe
000001a0: 11e0 9ebd 5d1e 0f3d 7547 933e df45 96be
000001b0: d665 aebd 095c 5e3e 8e48 42bd e8dd 21be
000001c0: 1ffb 203e e8ef 62be 935b 49be 22ca 44bf
000001d0: 8b3c 0b3d 3344 6e3e 1227 14bf cf85 fcbe
000001e0: 095d d3be 2e74 1a3e 3654 e73d c110 c53e
000001f0: 928f 05bf 7be8 243e 7300 39be 9706 aabc
00000200: fef5 14be edc1 94be a81b 0fbd 92ee 373e
00000210: c070 d3be 453e 883e 8b36 c83e b2dd 61be
00000220: 3793 ffbe 5c59 693e 9712 05be 4491 cdbd
00000230: 1229 63be ea61 053e b3c7 6abe d494 12bc
00000240: d6d7 8f3e 1329 86b9 3d4c c13a 7c36 0ebd
00000250: cd5b c23e 1cc7 b1bc 2e67 1fbe 0e4a c23d
00000260: 5d4e e7bd 47eb 4d3d 7065 df3b 4246 703e
00000270: a641 5fbd a14e 80be 4c89 8b3e c7ad 533e
00000280: 1eda e9bd 928c 7fbe 6be8 d1be 1a12 903d
00000290: 961a 8e3e ffa6 9cbd c88d 65bd 6ba1 193d
000002a0: 98f2 2abe 8388 8abc f537 d7bd c0bc 393e
000002b0: f54c ae3d 1fb0 44be 0311 563e c5af da3d
000002c0: 9bef b2be db47 30bd 38a2 563e faf9 a03e
000002d0: 0ba4 af3e 1be1 2bbe 9e44 cfbd c44e 90be
000002e0: e74b be3e 1936 e7bc 597a bc3e 8966 bd3e
000002f0: 9baa d4bc c055 82be 5820 ed3e ba3c 1b3f
00000300: 5cf8 84bc a4bb b5bf c4fe bf3c 6b58 d33d
00000310: 4f55 8bbb b883 a8bf 6a57 76bd 44de 8c3e
00000320: ee96 4a3e 978f 2e3d dd4c 93bc 48a0 c73d
00000330: 22a0 a13e 574d eebd 781b 7f3e 198c 533c
00000340: 51d0 173f 709c 9bbe 9e55 543f 34d2 b13c
00000350: ff8d 64bd 24a1 36be daa1 423f 5967 8c3d
00000360: 1614 5cbd 9797 da3c 8635 a0be 034f 903d
00000370: c59f a8be 550f f13d 07fa df3e 28fd b7ba
00000380: 9da4 7abe 2a74 1e3d 7a62 ab3e 9e12 053e
00000390: b7df 7abc b663 6fbe 6c89 353d 42c7 80be
000003a0: cc64 5fbd 2ae6 3cbc 8ad0 123e 766f 733e
000003b0: dbef 78be 6db3 003f 434a a13d 7883 c93e
000003c0: 60db 053d e5ce 783e d98c cdbd c52b 5a3e
000003d0: b417 c13e 2bb7 b53e f7f8 223e a652 0fbf
000003e0: d4cf 95be ca23 9d3e 9dc4 5ebe 300e 383d
000003f0: 3025 de3e a6bc e3bd 6eb7 c2bd 4336 893e

predictor.layers.0.bias f4 [64]
-0.01563114 -0.08048112 -0.12261707 0.09419826 -0.15920058 -0.1501187 -0.17231067 -0.11602006
0.16465801 0.27773649 0.2955244 0.25947025 -0.13446364 -0.19216616 0.08708292 0.17518456
-0.104618475 -0.17048404 -0.12682644 0.1227266 -0.02591155 0.4171799 0.11101852 -0.11020194
-0.23820947 -0.08830117 0.08627471 0.2772451 -0.07172647 0.14370678 0.014818322 -0.21232612
0.032346297 -0.23855695 -0.018258438 0.08883063 0.17053376 0.12169075 -0.11407882 -0.18914177
-0.0916646 -0.063651785 0.019460902 -0.16076405 -0.20759094 -0.13275348 0.14409931 0.18984047
0.30139786 0.22690304 -0.053842414 -0.15818252 -0.07320446 -0.18919362 0.38037977 0.26186213
0.415276 0.16936454 -0.16790205 -0.08817462 -0.18495728 -0.1799722 -0.043972116 -0.10169393
00000000: e00c 80bc 49d3 a4bd a91e fbbd 04eb c03d
00000010: 7a05 23be b7b8 19be 3572 30be ed9b edbd
00000020: 1c9c 283e 7a33 8e3e f94e 973e 49d9 843e
00000030: d6b0 09be 35c7 44be 8858 b23d 9563 333e
00000040: 3642 d6bd 5e93 2ebe cade 01be 1558 fb3d
00000050: 7544 d4bc 9b98 d53e ae5d e33d 8eb1 e1bd
00000060: 2fed 73be 3ed7 b4bd ccb0 b03d 12f3 8d3e
00000070: 54e5 92bd df27 133e 8cc8 723c 056c 59be
00000080: 8d7d 043d 4648 74be b892 95bc d5ec b53d
00000090: 67a0 2e3e 0039 f93d 28a2 e9bd 61ae 41be
000000a0: a6ba bbbd de5b 82bd 786c 9f3c 559f 24be
000000b0: b892 54be 87f0 07be c58e 133e 8a65 423e
000000c0: d250 9a3e 4559 683e dd89 5cbd 99fa 21be
000000d0: 38ec 95bd f9bb 41be 23c1 c23e cb12 863e
000000e0: 0e9f d43e e66d 2d3e 84ee 2bbe e594 b4bd
000000f0: 7165 3dbe a24a 38be 1b1c 34bd e844 d0bd

predictor.layers.1.weight f4 [64, 64]
0.11684644 0.06771136 -0.021119727 -1.0729681 0.21304518 0.09000417 0.065780796 0.25128254
0.15804054 -0.13742399 0.21618205 -0.13055694 -0.29744357 0.091259904 0.018507205 0.06110418
0.00016612571 0.0020411527 -0.050896693 -0.029447531 0.003547203 -0.20575707 0.29095173 0.08228268
-1.0138779 -0.16959149 0.02768609 -0.14626126 0.22030818 -0.010010311 0.015911384 -0.47283217
-0.8008964 -0.043414023 -0.01836609 0.17632061 -0.0058909804 -0.14468034 0.016133541 -0.01737358
0.076916605 0.09678071 -0.2025337 -0.028752603 -0.0825478 -0.09770905 0.16341425 0.2625074
-0.09362531 -0.37477076 0.03184999 0.04021167 -0.3154825 -0.08558031 -0.10824529 -0.10010471
-0.024224173 -0.5001255 0.028636115 0.12778789 -0.08470354 -0.1889808 0.5057135 0.13955124
-0.060382336 0.079469144 0.082459845 0.18644452 -0.118467696 0.052411947 -0.112601876 0.083722025
-0.16799918 -0.16641892 0.13569298 0.19676578 -0.23437133 -0.10867022 0.07072442 0.042777944
0.097440526 -0.10115602 0.08430676 0.16184194 0.20533405 -0.2001684 -0.18398489 0.15116146
-0.033545144 0.10174142 -0.18490985 0.18942885 0.2330182 0.21281545 0.2160723 0.05876662
-0.11363857 0.18634868 -0.12801616 0.0072964868 -0.22610314 -0.025531791 0.21936359 -0.115097485
-0.2186154 0.22369818 -0.077396974 -0.07569409 -0.15805946 0.019629164 -0.041642718 -0.09321906
0.12558964 -0.21272582 -0.07606688 0.018681591 -0.060140874 0.1649832 0.18699211 0.020031843
0.18880765 -0.24190855 -0.16362232 -0.028535327 0.11484874 0.19012523 0.09106727 -0.24588758
-0.07788612 -0.09467951 -0.22029157 -0.48623395 -0.3678836 -0.1950854 0.093863815 0.2354651
0.296266 -0.02815201 -0.067023076 -0.46264157 0.7266079 0.2021882 0.04397263 -0.047713526
-0.27188066 0.42701456 0.076048434 0.031538762 0.35330617 -0.3864338 -0.6068072 0.2205882
0.08548567 0.13664529 -0.15100981 -0.008231032 -0.08598202 -0.067352146 0.12170827 -0.2821654
-0.6746118 -0.18349113 0.12748843 0.06353365 0.13222203 -0.010746319 -0.14844969 0.42097217
0.24675049 -0.04685703 0.40890563 -0.15166977 -0.0018994728 0.104591414 0.33487794 -0.042009257
0.21459219 0.46100602 0.4624819 0.010292288 -0.102698565 0.2456478 -0.38578716 -0.08712124
-0.25396523 -0.10493417 0.08194023 -0.06984841 0.3771238 0.21402247 -0.3018998 0.15324056
-0.1353017 0.21801949 0.060827803 0.16197187 -0.109652735 0.22478813 0.109791145 -0.22515853
-0.21784247 0.13800034 -0.013483571 -0.17763475 0.09078294 -0.22724079 0.040218946 -0.05348888
-0.05741845 0.19923237 -0.19433312 0.24054514 0.053081002 0.110410534 0.21801071 0.14753897
0.21593027 0.03522434 -0.014803931 0.13482662 0.043200165 0.04363368 0.2186554 0.10424309
-0.16796203 -0.08781011 0.11525943 0.1633357 -0.20642851 0.22355565 -0.18005669 -0.18954009
0.085131764 0.18670623 -0.1737594 0.051219758 -0.16099575 -0.2308196 0.01991439 -0.0025458005
0.013469059 0.10017707 -0.22257501 0.07358406 -0.20991637 -0.17418268 0.08687864 -0.07673209
0.09795142 -0.04919211 -0.048183154 0.10400828 -0.13069011 0.036296472 -0.033275623 -0.17572862
00000000: 304d ef3d 41ac 8a3d 4703 adbc 0557 89bf
00000010: 8428 5a3e 1b54 b83d 15b8 863d 1ba8 803e
00000020: 61d5 213e e0b8 0cbe d45e 5d3e b8b0 05be
00000030: 864a 98be 79e6 ba3d 6c9c 973c 6048 7a3d
00000040: 0832 2e39 dcc4 053b 0d79 50bd f33b f1bc
00000050: 3178 683b fbb1 52be a0f7 943e d283 a83d
00000060: c0c6 81bf 64a9 2dbe f0cd e23c 83c5 15be
00000070: 7898 613e 4a02 24bc 9758 823c 0f17 f2be
00000080: 8c07 4dbf e7d2 31bd 7b74 96bc 648d 343e
00000090: 2009 c1bb 1527 14be 7d2a 843c 0a53 8ebc
000000a0: 7486 9d3d f734 c63d ff64 4fbe 948a ebbc
000000b0: d20e a9bd af1b c8bd 1156 273e 5f67 863e
000000c0: a0be bfbd f4e1 bfbe 2375 023d feb4 243d
000000d0: ec86 a1be bb44 afbd b5af ddbd b303 cdbd
000000e0: c671 c6bc 3a08 00bf 4996 ea3c d4da 023e
000000f0: 0d79 adbd 2f84 41be 7176 013f 85e6 0e3e
00000100: 7853 77bd b8c0 a23d b5e0 a83d 50eb 3e3e
00000110: 319f f2bd e9ad 563d d09b e6bd 7476 ab3d
00000120: fa07 2cbe b969 2abe 1af3 0a3e f87c 493e
00000130: 0aff 6fbe 7e8e debd f7d7 903d ed37 2f3d
00000140: e68e c73d e32a cfbd 06a9 ac3d e5b9 253e
00000150: 1743 523e f2f8 4cbe 8966 3cbe 12ca 1a3e
00000160: a266 09bd ce5d d03d 0259 3dbe a3f9 413e
00000170: 539c 6e3e 4bec 593e 0f42 5d3e 44b5 703d
00000180: 57bb e8bd 30d2 3e3e ab16 03be 5e17 ef3b
00000190: 9587 67be 0c28 d1bc d9a0 603e 3bb8 ebbd
000001a0: b7dc 5fbe 2311 653e 4e82 9ebd 8105 9bbd
000001b0: 57da 21be 57cd a03c 8e91 2abd a2e9 bebd
000001c0: 929a 003e ccd4 59be f4c8 9bbd 230a 993c
000001d0: 4756 76bd 5bf1 283e dc7a 3f3e d219 a43c
000001e0: cb56 413e e0b6 77be 9c8c 27be ebc2 e9bc
000001f0: d135 eb3d 30b0 423e 7a81 ba3d f4c9 7bbe
00000200: c282 9fbd 55e7 c1bd 1d94 61be a8f3 f8be
00000210: 3d5b bcbe 78c4 47be ac3b c03d c31d 713e
00000220: 2db0 973e 0b9f e6bc 6543 89bd 5bdf ecbe
00000230: fa02 3a3f 6c0a 4f3e a51c 343d 426f 43bd
00000240: f133 8bbe a7a1 da3e 48bf 9b3d ca2e 013d
00000250: 8ce4 b43e a7da c5be b757 1bbf e0e1 613e
00000260: 1c13 af3d beec 0b3e 51a2 1abe 73db 06bc
00000270: 5717 b0bd ecef 89bd 2f42 f93d fc77 90be
00000280: 5cb3 2cbf 19e5 3bbe 548c 023e ee1d 823d
00000290: 3665 073e 5411 30bc 3203 18be aa89 d73e
000002a0: 29ac 7c3e 28ed 3fbd 145c d13e 524f 1bbe
000002b0: bbf7 f8ba 0634 d63d 1f75 ab3e e611 2cbd
000002c0: 0ebe 5b3e fb08 ec3e 6dca ec3e fca0 283c
000002d0: a053 d2bd 198b 7b3e e585 c5be 9f6c b2bd
000002e0: bb07 82be bae7 d6bd 48d0 a73d af0c 8fbd
000002f0: 5f16 c13e b528 5b3e 9c92 9abe 18eb 1c3e
00000300: 878c 0abe 8040 5f3e 9326 793d f4db 253e
00000310: 9d91 e0bd dc2e 663e 2eda e03d f58f 66be
00000320: 1912 5fbe f64f 0d3e 32ea 5cbc e2e5 35be
00000330: 68ec b93d cfb1 68be 9fbc 243d 2817 5bbd
00000340: 9c2f 6bbd 9203 4c3e 43ff 46be 7751 763e
00000350: 776b 593d eb1e e23d 333e 5f3e 7514 173e
00000360: d31c 5d3e 6647 103d 308c 72bc fd0f 0a3e
00000370: a8f2 303d 3bb9 323d 34e7 5f3e 677d d53d
00000380: 3dfe 2bbe c9d5 b3bd 230d ec3d 7941 273e
00000390: ff61 53be c6eb 643e c860 38be cc16 42be
000003a0: 9059 ae3d eb2f 3f3e fced 31be cfcb 513d
000003b0: 12dc 24be f95b 6cbe 8123 a33c 72d7 26bb
000003c0: 54ad 5c3c a329 cd3d b4ea 63be 3db3 963d
000003d0: 51f4 56be f25c 32be 6eed b13d b725 9dbd
000003e0: c19a c83d aa7d 49bd b35b 45bd 4b02 d53d
000003f0: a1d3 05be 9cab 143d 054c 08bd 34f2 33be

predictor.layers.1.bias f4 [64]
0.0061769807 -0.22988853 -0.10786393 -0.2484981 -0.1337171 0.048107903 -0.04324695 0.103880785
0.21984391 0.20216396 -0.2510938 -0.10986263 0.09079703 0.119731985 0.05105322 -0.013306738
-0.055745512 -0.28888172 -0.15474215 -0.26294407 -0.19643824 0.23936996 -0.1008781 -0.07211428
-0.07181275 0.039728962 0.29666942 0.20847447 -0.17540161 0.15465206 -0.046310984 -0.04731123
0.08558748 0.12263131 -0.22404532 0.12847239 -0.19923645 0.039399613 -0.12814929 0.06464832
-0.14930561 -0.05742267 0.22755507 -0.017990991 -0.08352365 -0.008496818 -0.26833332 -0.09024187
-0.1596862 0.11979806 0.26266158 0.12439566 0.20862733 -0.16067417 -0.02213673 -0.07512423
-0.0069019734 -0.2711269 -0.15542315 0.2758685 -0.13908385 0.15308057 0.30776593 -0.1182473
00000000: 4568 ca3b e667 6bbe c4e7 dcbd 4976 7ebe
00000010: 23ed 08be cb0c 453d b723 31bd 73bf d43d
00000020: c31e 613e 1204 4f3e 5e8f 80be a9ff e0bd
00000030: cbf3 b93d 0b36 f53d 2e1d 513d 8104 5abc
00000040: 6855 64bd 4ee8 93be ba74 1ebe 9ba0 86be
00000050: 1b27 49be 661d 753e 2d99 cebd a7b0 93bd
00000060: 9012 93bd d6ba 223d 0ee5 973e 557a 553e
00000070: 7b9c 33be 1c5d 1e3e 96b0 3dbd 6cc9 41bd
00000080: 7d48 af3d 2026 fb3d 236c 65be 448e 033e
00000090: a404 4cbe 7d61 213d 9139 03be 5766 843d
000000a0: 92e3 18be 0934 6bbd 3204 693e d861 93bc
000000b0: 730e abbd 3d36 0bbc fc62 89be bbd0 b8bd
000000c0: c784 23be af58 f53d 947b 863e 27c3 fe3d
000000d0: 67a2 553e c587 24be 1658 b5bc bbda 99bd
000000e0: f329 e2bb 25d1 8abe 3f27 1fbe a33e 8d3e
000000f0: ff6b 0ebe 27c1 1c3e 7f93 9d3e a42b f2bd

predictor.layers.2.weight f4 [64, 64]
-0.07566316 -0.16825408 0.1815857 0.207316 -0.16339804 0.1186338 0.23530938 -0.23691064
0.07031192 0.10144337 -0.20639677 0.1283996 -0.1402015 -1.0786201 -0.21499224 -0.18560742
-0.010452905 -0.4384074 -0.10444626 -0.06811198 -0.12007919 -0.23321742 -0.2357981 0.1596373
-0.28701663 -0.03594397 0.21289654 0.25183985 -0.10775706 -0.052028786 -0.10129036 -0.18713334
0.1623473 0.09367173 -0.16944039 -0.09154041 -0.053559825 0.18988092 -0.20136836 -0.24685934
-0.19462082 0.06466889 -0.124695085 0.07020586 -0.15301797 -0.07094455 -0.01140989 -0.03854453
0.08182073 0.25346002 0.13141482 -0.18743688 0.23600787 -0.118127085 -0.47573942 0.025373464
0.2037723 0.2264231 -0.28132376 0.07153512 0.071784504 -0.050965272 0.2858379 -0.0059978855
0.17124969 0.018238433 0.06416947 -0.12163503 -0.09187455 -0.12412176 -0.13563864 -0.047766153
-0.034142625 0.10504898 -0.24300624 0.18467185 0.015168237 0.17301165 -0.074744284 -0.07683561
0.24824734 0.03376839 0.17741585 -0.022570254 0.12598196 0.045032606 0.011491177 -0.045516934
-0.068043165 0.033327155 0.14972544 -0.15248753 -0.14950722 -0.11030978 -0.039126344 -0.11281764
0.086069606 0.043224253 -0.23841396 -0.0003878216 0.0971041 0.075381026 0.04676238 -0.17103507
0.18912381 -0.074676275 -0.09224405 0.025937095 -0.22133082 -0.18846683 -0.09081638 -0.039193492
-0.22247317 -0.20618445 0.0022134935 0.20972195 0.17640767 0.009614209 0.081836425 -0.07872822
0.20594718 -0.04484251 -0.13301271 -0.22719464 -0.13759185 -0.1456639 -0.045837827 0.04334179
0.0748158 0.24376732 0.06936277 -0.065081745 0.07105424 0.121952206 0.03349118 0.6983878
-0.34379816 -0.06794499 0.18557893 0.02179468 -0.38268998 1.1406183 0.31976745 0.12044213
0.19044621 0.54029745 0.2822776 0.004665886 -0.16265571 -0.10190912 0.18270984 0.26551798
0.3535448 0.22866386 -0.21592586 -0.06305993 0.14277193 0.1347559 -0.0465717 -0.06421795
0.2222495 0.07272656 0.22722347 0.039731536 0.21277897 -0.033748526 0.14461748 0.22471075
-0.1916765 0.06755091 -0.14039958 -0.24180172 0.09552819 0.038919248 0.16019243 0.048808515
0.22848436 0.17166097 -0.3296006 0.4343273 -0.030613884 0.17948648 0.6483779 0.1227736
-0.19678774 0.0021294828 0.42763147 -0.25572783 -0.03302271 -0.059922475 -0.21440807 -0.13476339
-0.24525395 -0.09536057 -0.07437821 0.11607893 -0.18342786 0.007156986 -0.23607169 0.0794487
-0.114708 -0.01908445 -0.21715802 0.2470177 0.031195963 0.19033597 -0.22311802 0.09058117
-0.20622608 -0.14120951 -0.23329549 -0.072137035 0.10087391 -0.00868306 -0.022099199 -0.13422251
0.099244826 -0.11039309 0.17592418 0.053170368 0.019053783 0.117218815 -0.0045960313 -0.25966302
0.038440015 -0.14675467 0.10766298 -0.1361452 -0.1212702 0.15112647 -0.05523958 -0.24324988
-0.012271021 0.2499189 0.017298566 0.015589512 0.22902316 0.13686891 0.11827034 0.10392034
0.18632191 -0.23899195 -0.23881286 -0.099842824 -0.09855019 -0.052932754 -0.21723513 -0.015443027
0.16508026 -0.1632771 -0.11976488 0.15175594 -0.2214611 -0.20983295 -0.15140162 -0.11366896
00000000: 49f5 9abd cc4a 2cbe 9af1 393e a54a 543e
00000010: d151 27be 47f6 f23d f1f4 703e b498 72be
00000020: b2ff 8f3d 8bc1 cf3d ad59 53be 2f7b 033e
00000030: fb90 0fbe 3910 8abf ed26 5cbe df0f 3ebe
00000040: a942 2bbc ef76 e0be ece7 d5bd 4b7e 8bbd
00000050: 14ec f5bd 8cd0 6ebe 0f75 71be f677 233e
00000060: d8f3 92be fc39 13bd 8d01 5a3e 27f1 803e
00000070: bcaf dcbd 231c 55bd 5271 cfbd e29f 3fbe
00000080: 5f3e 263e f7d6 bf3d c881 2dbe 8a79 bbbd
00000090: 8c61 5bbd 2570 423e 8233 4ebe b2c8 7cbe
000000a0: ae4a 47be 1f71 843d 2360 ffbd 17c8 8f3d
000000b0: beb0 1cbe 604b 91bd 8cf0 3abc dee0 1dbd
000000c0: a091 a73d 83c5 813e 9b91 063e 74ef 3fbe
000000d0: 0cac 713e 9dec f1bd 1e94 f3be 03dc cf3c
000000e0: b0a9 503e 75db 673e ab09 90be 0181 923d
000000f0: c103 933d f6c0 50bd 5859 923e e989 c4bb
00000100: 145c 2f3e c468 953c 486b 833d c91b f9bd
00000110: b928 bcbd 8d33 febd dbe4 0abe 71a6 43bd
00000120: 23d9 0bbd eb23 d73d a1d6 78be 9e1a 3d3e
00000130: 3284 783c f729 313e 8813 99bd fd5b 9dbd
00000140: 8d34 7e3e b950 0a3d 80ac 353e 41e5 b8bc
00000150: 6a01 013e 1c74 383d 7d45 3c3c f76f 3abd
00000160: 375a 8bbd 0e82 083d a051 193e b125 1cbe
00000170: 6c18 19be 18ea e1bd f242 20bd ef0c e7bd
00000180: 4345 b03d ea0b 313d ca22 74be 8954 cbb9
00000190: 84de c63d 5e61 9a3d e989 3f3d d123 2fbe
000001a0: aca9 413e e0ef 98bd 73ea bcbd 087a d43c
000001b0: 8ca4 62be 73fd 40be f0fd b9bd 5b89 20bd
000001c0: 02d0 63be 0422 53be 4210 113b 5ac1 563e
000001d0: 36a4 343e ea84 1d3c db99 a73d 433c a1bd
000001e0: d1e3 523e c8ac 37bd 7c34 08be b6a5 68be
000001f0: e1e4 0cbe eb28 15be 72c0 3bbd 2987 313d
00000200: 0739 993d 249e 793e 110e 8e3d 9449 85bd
00000210: e384 913d 14c2 f93d 0c2e 093d 8bc9 323f
00000220: 5006 b0be be26 8bbd 6708 3e3e c28a b23c
00000230: f1ef c3be c8ff 913f 8fb8 a33e 5daa f63d
00000240: 5504 433e ef50 0a3f b186 903e 4ae4 983b
00000250: 388f 26be bbb5 d0bd 4a18 3b3e f9f1 873e
00000260: d303 b53e dc26 6a3e ab1b 5dbe 9125 81bd
00000270: ce32 123e 73fd 093e f8c1 3ebd b384 83bd
00000280: 5f95 633e aaf1 943d 45ad 683e 89bd 223d
00000290: bbe2 593e e53b 0abd 9b16 143e 931a 663e
000002a0: d846 44be 2258 8a3d e8c4 0fbe df9a 77be
000002b0: 49a4 c33d ca69 1f3d 7c09 243e 70eb 473d
000002c0: cef7 693e e5c7 2f3e 69c1 a8be 2660 de3e
000002d0: f8c9 fabc 4ecb 373e 18fc 253f ba70 fb3d
000002e0: ba82 49be cb8e 0b3b 83f2 da3e c2ee 82be
000002f0: d242 07bd 4571 75bd ca8d 5bbe 6aff 09be
00000300: da23 7bbe 674c c3bd 9a53 98bd caba ed3d
00000310: 83d4 3bbe 2685 ea3b c7bc 71be 00b6 a23d
00000320: 07ec eabd fe56 9cbc ac5e 5ebe 35f2 7c3e
00000330: ad8e ff3c 6fe7 423e 0d79 64be 9f82 b93d
00000340: ee2c 53be 3a99 10be 03e5 6ebe 95bc 93bd
00000350: fb96 ce3d 6543 0ebc 6109 b5bc a071 09be
00000360: df40 cb3d c615 e2bd 7825 343e 2cc9 593d
00000370: ae16 9c3c 6b10 f03d 4e9a 96bb 8df2 84be
00000380: 4773 1d3d db46 16be 697e dc3d a669 0bbe
00000390: 835c f8bd e6c0 1a3e e642 62bd 7f16 79be
000003a0: 640c 49bc bdea 7f3e b9b5 8d3c 276b 7f3c
000003b0: 0c85 6a3e 5d27 0c3e b837 f23d 30d4 d43d
000003c0: 2ccb 3e3e 4eba 74be 5c8b 74be 657a ccbd
000003d0: afd4 c9bd 04d0 58bd e372 5ebe c004 7dbc
000003e0: cd0a 293e 1d32 27be 4a47 f5bd e965 1b3e
000003f0: b3c6 62be 73de 56be 0709 1bbe 46cb e8bd

predictor.layers.2.bias f4 [64]
0.33658698 -0.004727209 -0.19646938 0.11317944 0.012665152 -0.21580023 -0.075100854 -0.11715228
0.029499432 0.12606066 -0.009999587 0.10234977 -0.0720247 0.10680014 -0.04231335 0.016625043
-0.20928136 0.3195603 -0.03822624 -0.24667442 -0.08790111 0.04476732 -0.14559335 -0.27450478
0.046189714 -0.011571574 0.060709625 -0.052974604 0.33645752 -0.004363421 0.06471913 -0.033731855
-0.1494274 0.15456381 -0.032490324 -0.019574452 0.08234565 0.22606276 0.09415871 0.012344649
0.24596405 0.21631305 0.3007538 0.07867144 0.22896037 -0.10257738 -0.27476883 0.025482848
-0.21217018 0.04959297 -0.15874627 -0.20363836 -0.24518462 0.022559725 0.018706983 0.2937269
0.12498828 0.02546215 0.26277113 0.08726976 -0.16012292 -0.012822954 -0.22289605 0.1970342
00000000: 2155 ac3e b4e6 9abb 452f 49be 9fca e73d
00000010: 7f81 4f3c bcfa 5cbe 7ace 99bd 89ed efbd
00000020: cba8 f13c 0c16 013e 4fd5 23bc c29c d13d
00000030: b081 93bd 08ba da3d c350 2dbd 3e31 883c
00000040: da4d 56be 689d a33e 1e93 1cbd 3898 7cbe
00000050: 7f05 b4bd f05d 373d 6c16 15be e48b 8cbe
00000060: 6d31 3d3d b396 3dbc a8aa 783d e6fb 58bd
00000070: 2944 ac3e 07fb 8ebb 778b 843d 6a2a 0abd
00000080: 7f03 19be fa45 1e3e 9314 05bd 9a5a a0bc
00000090: d6a4 a83d ff7c 673e 48d6 c03d 3641 4a3c
000000a0: 00de 7b3e 2b81 5d3e 67fc 993e 7e1e a13d
000000b0: 9674 6a3e 1714 d2bd 80ae 8cbe 68c1 d03c
000000c0: 2443 59be 0022 4b3d 628e 22be 9386 50be
000000d0: ad11 7bbe 2ccf b83c 633f 993c 5f63 963e
000000e0: dbf9 ff3d 0096 d03c f089 863e 7dba b23d
000000f0: 43f7 23be 5e17 52bc dd3e 64be 55c3 493e

predictor.layers.3.weight f4 [64, 64]
0.26102325 0.046011105 -0.36992952 0.17333952 -0.18097496 0.14942801 -0.39537814 -0.17711829
-0.21661153 -0.11701592 0.101723105 0.060276974 0.64134794 -0.006786414 -0.14500546 0.19081202
0.13047644 -0.00087935716 -0.044903867 -0.5433003 -0.06432833 0.19136417 -0.16304295 -0.13684015
-0.04062905 0.06477192 -0.016528193 -0.08863912 -0.10042371 0.20506899 -0.09259041 -0.11698653
-0.6031022 0.7675289 -0.25965783 -0.20267746 0.10546932 0.1997573 0.0622813 0.171537
0.23543991 -0.001982897 0.13132954 0.10456161 0.24491994 -0.04065855 -0.009945768 -0.11992921
0.10001086 0.04604523 -0.11712236 0.67860776 0.2379455 0.071299896 0.03122215 0.2332106
0.117752455 0.011490341 0.13141963 -1.1213393 -0.115640335 0.0641698 -0.22806977 -0.0028184287
0.27664545 0.16582066 -0.4170877 -0.020440497 0.21127747 -0.21646935 -0.08251162 0.23590258
0.017424352 -0.105086215 -0.0054792007 -0.15625909 0.9288546 -0.11485992 0.17571256 0.1798185
-0.13947837 -0.0201844 -0.47644907 -0.8995654 -0.20514296 -0.11678058 0.18784904 -0.2276757
-0.082564384 0.24489515 -0.21379161 -0.22773017 0.047778603 0.18324225 -0.3451548 0.022755526
-0.6060023 0.4583227 -0.16398627 0.15908593 0.18433838 0.056657284 -0.076822214 0.2686999
0.6137759 0.08483527 0.014735263 0.052302178 0.3224713 0.00679241 0.07268225 -0.13285585
-0.10455349 0.24216235 -0.26557824 0.5951293 0.109553315 0.10515464 0.08290891 -0.030300483
0.034700572 0.41804293 0.049687106 -2.1598923 -0.024108067 0.02668364 -0.0014952957 -0.23716313
0.20945576 0.08740423 -0.5104904 -0.22572517 -0.09483977 -0.014867983 -0.35056022 0.20763984
-0.21560585 -0.025802867 0.032211114 -0.01659004 0.8508819 0.16659807 0.019723265 0.12830767
0.148263 0.014293026 -0.3277498 -0.51378906 -0.1781544 -0.10000957 -0.16438957 -0.030056648
-0.12907204 0.1961788 -0.15449809 0.22540402 0.06903453 -0.0013290625 0.10639266 0.21429543
-0.44624376 0.52274185 -0.22930533 0.14068449 0.20835753 0.04893159 0.007920316 0.22334601
0.28735343 -0.09070005 0.047607306 0.1960099 0.11882357 0.17468192 0.08697755 0.16068895
0.16183259 -0.05783095 0.096566 0.41920966 -0.06516596 0.16673319 -0.10494635 0.028019845
0.052110277 0.09111249 0.07038967 -1.3463914 0.15990596 -0.021948565 -0.20268755 -0.020523086
0.047122777 -0.20774421 0.5457136 -0.0537369 -0.031582456 -0.07320446 0.4345031 -0.22065853
0.03140135 -0.026153285 -0.23387454 0.03502783 0.33162397 0.1876002 0.119774505 -0.007695226
-0.18586415 -0.10110939 0.08428055 0.5368528 0.20453562 0.027478896 0.08986392 0.08345569
0.010542884 0.024445647 -0.11084788 0.15665734 -0.09219418 -0.060132302 0.31198794 0.18732543
0.21051252 0.16140147 0.15642698 0.17405538 -0.17374507 -0.22612917 0.003498875 0.013275232
0.13038738 -0.28974986 -0.23787819 -0.21797113 0.039557528 0.10384056 0.2146466 0.0614311
-0.053874146 0.13554461 0.18164524 0.24713163 -0.05534365 -0.33434552 0.002610424 0.009736366
-0.05281483 -0.34917453 -0.08390115 -0.22478247 0.09832394 -0.09710898 -0.1708349 -0.064749554
00000000: d7a4 853e 2476 3c3d 6767 bdbe ea7f 313e
00000010: 8051 39be a803 193e 016f cabe 7f5e 35be
00000020: 6acf 5dbe 0ba6 efbd 3454 d03d fde4 763d
00000030: 612f 243f 9160 debb 507c 14be 3a64 433e
00000040: 9e9b 053e a984 66ba 1eed 37bd ba15 0bbf
00000050: 92be 83bd f8f4 433e bbf4 26be d31f 0cbe
00000060: a66a 26bd 24a7 843d 2266 87bc 6d88 b5bd
00000070: f2aa cdbd 9bfd 513e 0aa0 bdbd a296 efbd
00000080: e864 1abf c67c 443f dff1 84be ae8a 4fbe
00000090: 4d00 d83d 2d8d 4c3e ad1a 7f3d 65a7 2f3e
000000a0: 2917 713e 7ef3 01bb 407b 063e 6624 d63d
000000b0: 4bcc 7a3e 9489 26bd 93f3 22bc 729d f5bd
000000c0: 7ed2 cc3d ec99 3c3d d9dd efbd 3db9 2d3f
000000d0: fca7 733e ae05 923d 98c5 ff3c c2ce 6e3e
000000e0: 3328 f13d fc41 3c3c de92 063e 0c88 8fbf
000000f0: d7d4 ecbd 756b 833d 1f8b 69be 63b5 38bb
00000100: 79a4 8d3e e4cc 293e 858c d5be d472 a7bc
00000110: 1f59 583e 24aa 5dbe dafb a8bd 7290 713e
00000120: 84bd 8e3c 7137 d7bd de8a b3bb 6202 20be
00000130: 6ac9 6d3f ae3b ebbd feed 333e 5722 383e
00000140: 6bd3 0ebe c159 a5bc 22f1 f3be eb49 66bf
00000150: ff10 52be a82a efbd 805b 403e d223 69be
00000160: 8417 a9bd cbc5 7a3e 30ec 5abe 1932 69be
00000170: 7fb3 433d dba3 3b3e 21b8 b0be cc69 ba3c
00000180: f722 1bbf 46a9 ea3e 04ec 27be 6ce7 223e
00000190: 33c3 3c3e 7811 683d f754 9dbd 0993 893e
000001a0: 6b20 1d3f 1dbe ad3d 2c6c 713c cf3a 563d
000001b0: f51a a53e dd92 de3b 6eda 943d 5d0b 08be
000001c0: 2420 d6bd 68f9 773e dff9 87be 655a 183f
000001d0: 7d5d e03d 515b d73d 26cc a93d b838 f8bc
000001e0: 3022 0e3d b909 d63e b584 4b3d ad3b 0ac0
000001f0: 487e c5bc a697 da3c ccfd c3ba e4da 72be
00000200: 927b 563e fd00 b33d 80af 02bf 8024 67be
00000210: 5a3b c2bd d798 73bc a17c b3be 8a9f 543e
00000220: c8c7 5cbe 8960 d3bc cdef 033d d6e7 87bc
00000230: 65d3 593f af98 2a3e af92 a13c 1663 033e
00000240: 42d2 173e 4c2d 6a3c d2ce a7be ae87 03bf
00000250: 1b6e 36be d1d1 ccbd bd55 28be 5c39 f6bc
00000260: 762b 04be 18e3 483e bf34 1ebe 50d0 663e
00000270: fa61 8d3d f033 aeba 65e4 d93d 4370 5b3e
00000280: 107a e4be 69d2 053f 04cf 6abe 980f 103e
00000290: ad5b 553e 7e6c 483d 37c4 013c d1b4 643e
000002a0: fd1f 933e f3c0 b9bd e1ff 423d d2b6 483e
000002b0: c659 f33d d1df 323e 4921 b23d a58b 243e
000002c0: 71b7 253e 25e0 6cbd 65c4 c53d a6a2 d63e
000002d0: bb75 85bd 1bbc 2a3e 1dee d6bd e089 e53c
000002e0: 9671 553d 2f99 ba3d 7628 903d 8e56 acbf
000002f0: 63be 233e 7acd b3bc 538d 4fbe 0820 a8bc
00000300: d003 413d e6ba 54be e3b3 0b3f 391b 5cbd
00000310: 9b5c 01bd 38ec 95bd 3177 de3e 4ff4 61be
00000320: b49e 003d 6a3f d6bc cf7c 6fbe 5879 0f3d
00000330: 9eca a93e 441a 403e 564c f53d 3c28 fcbb
00000340: 2c53 3ebe 7112 cfbd 489b ac3d 2f6f 093f
00000350: c971 513e 6c1b e13c 930a b83d d1ea aa3d
00000360: 0fbc 2c3c 3d42 c83c 3704 e3bd c86a 203e
00000370: 4dd0 bcbd 4a4d 76bd e2bc 9f3e 3dd2 3f3e
00000380: 9890 573e 6d46 253e 652e 203e 933b 323e
00000390: 3aea 31be 688e 67be 624d 653b 5c80 593c
000003a0: 4584 053e 185a 94be 5796 73be d333 5fbe
000003b0: 1307 223d 5caa d43d 51cc 5b3e 2d9f 7b3d
000003c0: 23ab 5cbd 35cc 0a3e 3601 3a3e 1310 7d3e
000003d0: 06b0 62bd 562f abbe a613 2b3b 4785 1f3c
000003e0: 5d54 58bd 01c7 b2be 5ed4 abbd 602d 66be
000003f0: 105e c93d 13e1 c6bd 58ef 2ebe 6a9b 84bd

predictor.layers.3.bias f4 [64]
0.1706644 0.07048039 0.26447934 -0.1041649 -0.15892382 -0.012474546 -0.2239087 -0.08632122
-0.20543273 0.32146236 0.30901518 0.026704203 0.015873909 0.038607243 0.063682124 -0.124917485
-0.23325929 -0.14903232 0.30729493 -0.05849921 -0.0018832973 0.12925467 0.23079824 -0.21272711
-0.14227997 0.23583496 0.2739571 0.0007594336 -0.045341443 0.11502754 -0.18985565 0.3259665
0.33118433 -0.025566885 -0.26423463 0.07994852 0.0100438 -0.1629147 -0.026045578 0.12603438
-0.06346988 -0.2935911 -0.055786446 -0.26047522 -0.288621 -0.33129793 -0.17312258 0.17623451
-0.21572429 -0.16572884 -0.023376454 0.028774783 -0.3782804 -0.07176388 0.021264717 -0.14076354
-0.2880699 0.024173228 -0.18057285 0.2627195 -0.2651936 -0.04475993 -0.14740442 0.2413393
00000000: a6c2 2e3e 0658 903d d669 873e 6854 d5bd
00000010: edbc 22be 0a62 4cbc 5248 65be 2ec9 b0bd
00000020: f55c 52be b796 a43e 3d37 9e3e c6c2 da3c
00000030: 000a 823c a122 1e3d c66b 823d bdd4 ffbd
00000040: 86db 6ebe ee9b 18be c355 9d3e de9c 6fbd
00000050: f9d8 f6ba 565b 043e 6056 6c3e 23d5 59be
00000060: d7b1 11be b87e 713e 1b44 8c3e ba14 473a
00000070: f3b7 39bd 8f93 eb3d 8569 42be 15e5 a63e
00000080: fe90 a93e a571 d1bc c349 87be 0dbc a33d
00000090: c08e 243c 1cd3 26be 895d d5bc 280f 013e
000000a0: 7ffc 81bd 9351 96be 5480 64bd 025d 85be
000000b0: 22c6 93be e29f a9be 0c47 31be d276 343e
000000c0: d4e6 5cbe d2b4 29be fa7f bfbc 18b9 eb3c
000000d0: f8ad c1be f1f8 92bd 5833 ae3c 5124 10be
000000e0: e67d 93be ef06 c63c 17e8 38be 2c83 863e
000000f0: 75c7 87be 3056 37bd 2ff1 16be a621 773e

predictor.layers.4.weight f4 [1, 64]
-0.63504434 -0.73749125 -0.57910824 0.40350303 0.8492036 2.227469 1.2481395 -0.6296171
0.06966404 -0.51803917 2.0359538 -0.19301315 -1.3413798 0.39310777 -0.026092358 1.1273988
-0.20128743 0.06974635 -0.5872424 1.0350631 0.076489076 -0.508793 1.7992505 0.11011933
1.2341518 -0.5623348 -0.59161884 0.8223595 1.0713373 -0.54852647 0.23793522 -0.53725034
-0.4393735 0.7179017 1.264552 0.71665424 1.2493073 0.11120619 -0.5943165 -0.46841803
0.9107398 0.16567194 0.033683673 -0.08929727 1.2851365 1.2143688 -0.062617086 -0.8945652
-0.14769545 -0.05166967 0.28239885 -0.62543446 1.4316399 0.11539677 0.36011112 0.10311636
1.2817458 -2.3434234 0.72893363 -0.29010102 -0.15534192 -0.7656835 0.9388856 1.2917311
00000000: 4492 22bf 3acc 3cbf 7040 14bf f397 ce3e
00000010: 6865 593f da8e 0e40 09c3 9f3f 962e 21bf
00000020: 05ac 8e3d 379e 04bf 114d 0240 3da5 45be
00000030: 55b2 abbf 6c45 c93e a4bf d5bc 9b4e 903f
00000040: 4b1e 4ebe 2dd7 8e3d 8555 16bf f37c 843f
00000050: 4ea6 9c3d 4240 02bf d74d e63f 3e86 e13d
00000060: b0f8 9d3f 2cf5 0fbf 5574 17bf 2786 523f
00000070: 9521 893f 3b6c 0cbf 4aa5 733e 3d89 09bf
00000080: 90f5 e0be 68c8 373f d7dc a13f a776 373f
00000090: 4de9 9f3f 12c0 e33d 2025 18bf 7dd4 efbe
000000a0: 3e26 693f e8a5 293e e4f7 093d 7de1 b6bd
000000b0: 5a7f a43f 7070 9b3f 633d 80bd 3a02 65bf
000000c0: 7a3d 17be 93a3 53bd 9596 903e 791c 20bf
000000d0: fa3f b73f 2455 ec3d 7c60 b83e ac2e d33d
000000e0: 3f10 a43f a6fa 15c0 659b 3a3f 1f88 94be
000000f0: f411 1fbe d503 44bf cf5a 703f 7257 a53f
